action5.tflite (tflite, 628544 bytes, 15 tensors)

sequential_18/dense_54/BiasAdd/ReadVariableOp f4 [64]
00000000: 8514 e53c 5900 dcbd 0451 a0bc 03b6 82bd
00000010: 6fec 61bb e0a0 20bd cd8f 473e 77f4 77bd
00000020: 07cf b53d c53a 4c3d b326 423e 3a9b 58bc
00000030: 5fee eebc 18ab 373e b235 d7bd 7e48 863d
00000040: f4f9 803c bdb0 953c 0f0b d63b 8f8f de3c
00000050: 89cc 03bc 18be 2d3e 804d a0bd b451 67bd
00000060: 605a 3d3d db91 023d 2bdd f33d 65cf 153e
00000070: c7e7 b93b 9500 563d 0f80 e43d 38fe 86bd
00000080: 1d93 f5bb 72e3 fbbb e1e1 1bbe 3c23 f73d
00000090: cf3a 2ebd 2325 44bd fff7 8f3e 4aeb 433e
000000a0: 05a1 93bc 4139 2b3c a2be e5bb a062 07bd
000000b0: 60c7 71bc f8b3 9bbd 9ee2 293e daca 2dbd
000000c0: d80b 98bd db34 013d aead 50bd 8e42 6abd
000000d0: 8fd4 ddbc 55de bcbd 9723 cebd a9ae c6bc
000000e0: 7f3b 0a3e 902b 20bd 35ef c4bb c4db 2a3e
000000f0: de62 2a3e 08c7 0ebd e5da 5c3d 9708 673d
0.027963886 -0.10742254 -0.019569881 -0.06382372 -0.00344732 -0.039215922 0.1948845 -0.060535874
0.08877378 0.049860734 0.18960075 -0.013220603 -0.029166399 0.17936361 -0.105082884 0.065567955
0.015744187 0.018272752 0.00653208 0.027168063 -0.00804437 0.16967046 -0.07827282 -0.056474403
0.046228766 0.03187738 0.11907419 0.14629896 0.005673382 0.05224665 0.11157238 -0.06591457
-0.007494344 -0.0076870257 -0.15222885 0.12067267 -0.042536553 -0.04788698 0.28118894 0.19132724
-0.018021116 0.010450662 -0.0070112506 -0.03305304 -0.014757007 -0.07602686 0.16590354 -0.042429782
-0.07424134 0.031544548 -0.050946884 -0.057192378 -0.027078895 -0.09222094 -0.10065382 -0.024253206
0.13499258 -0.039104044 -0.006009961 0.16685396 0.16639277 -0.03485778 0.05391969 0.056404676

sequential_18/dense_55/BiasAdd/ReadVariableOp f4 [32]
00000000: 33ae 133e c859 ef3d 8f77 1ebd 115d dd3c
00000010: 3f19 62bd dcf8 7e3e 4e23 cb3d 4278 e5bc
00000020: e418 e23d 9f97 21bc b0db a2bc 104c 0c3d
00000030: 25ca 57bc 0a5a 26bc b5a7 ec3d 1477 b83d
00000040: 8a2f 62bd 8f73 d5bd fd11 babc 98b8 863d
00000050: d4b9 95bc bd5a 853d d039 113d bbf7 be3c
00000060: 0f35 00bc 357f 23bc 085e e13d ebae 293e
00000070: ad6b 093e 78c2 813c 0d52 c83b 548b 8abb
0.1442192 0.11687046 -0.03868824 0.027021917 -0.055199858 0.2489962 0.09918843 -0.028011445
0.11039904 -0.009862809 -0.019880146 0.034252226 -0.013170754 -0.010153303 0.11555425 0.09007087
-0.055221118 -0.10422432 -0.022713656 0.06578177 -0.018277086 0.065114476 0.035455525 0.023311486
-0.00782515 -0.009979059 0.11004263 0.16570632 0.13419981 0.0158398 0.006113297 -0.004228035

sequential_18/dense_56/BiasAdd/ReadVariableOp f4 [7]
00000000: ae38 983d ce02 b93d cd5a edbd 662d 1bbe
00000010: b361 913d 17eb a7bc 697a c53d
0.07432686 0.09033738 -0.115895845 -0.15154037 0.07098713 -0.020497842 0.096424885

sequential_18/dense_56/MatMul f4 [7, 32]
00000000: 1381 70bd 2777 b7bd 1c6d 2abe 5655 55be
00000010: a14e 45be ad94 8e3e 11a9 bc3e 0091 b4be
00000020: ef93 cd3e 6831 bcbe e3cb 863d 6e5a 0dbe
00000030: c0a0 6c3e 5201 d4be 1527 99be 7d3f b3be
00000040: 2765 783e 9b02 bdbe 66da df3d 4d64 9abe
00000050: d37f e5be daf9 04bf f360 803d e5c2 463d
00000060: 22f0 be3e a66b 38be fcee c03e 3d9b 653c
00000070: adb6 483d 63f4 933e 9a2b cdbe a9d7 973d
00000080: 129e 193d 964b d13e 71ff a53d f6bc de3e
00000090: d63e e8be dfec 3bbe 765d c2be 7dee d13d
000000a0: 144b b53d bc63 6cbe 38ee 4fbe cdad 3c3e
000000b0: 8052 b43c fbd2 c7bd 4d33 d53d 8122 fabd
000000c0: 09cd 533d 4332 4fbd 795d ecbe d4ad 393e
000000d0: 489b 0ebe c42c 843d bdab cf3e 654a 75be
000000e0: bb61 c33d 1ff2 20bd 3360 8bbe d75b 3e3c
000000f0: e82e d83d 1474 86be 8bf6 ba3c a53e 4e3d
00000100: 9579 b4be 9954 85bd a84f c43e 3486 9f3c
00000110: 9324 08bb f09a 12bf e8ef 443e 3ab4 afbe
00000120: f217 da3d c5d3 1a3c aa0a b2be e827 043e
00000130: 7698 073e db64 893e 17d3 d1be a81c 65be
00000140: 2c4a 95bd 85a0 3c3e b736 973e 9cac 91be
00000150: 8490 913d c4b5 b5be 8270 28be 9d42 fd3c
00000160: 6896 a13e c60f fabd 6564 ac3d ea4e 0abf
00000170: 34d1 05bf 12e7 a7be e673 773d 4202 9f3e
00000180: 38c9 6bbe faf0 0fbf 0d7c 5e3e 680c 313e
00000190: ccd0 a23e 8ae8 36bf a071 93be 9ca8 393e
000001a0: 95f4 703e 67d4 9fbe fb22 3c3e a1d1 b4be
000001b0: 9c11 b8bb 3334 3c3b a48b e3be af57 9cbe
000001c0: 9ecd af3e e6b3 a13e 806d a73e a2ce 27be
000001d0: b672 8abe 5f44 c4bc 60d1 563d 3799 cbbd
000001e0: 49e8 963e abc7 5d3e 569e cbbe f962 e2be
000001f0: 03da 69be 684d 40bd 8866 9abe e203 afbe
00000200: c425 673e 8539 ba3e fd37 c6be 1690 bd3e
00000210: 1b5c 9abe a8f0 b93d 6b4d 263e 6636 9c3e
00000220: 1c57 233e 4f27 8a3e 6135 2bbe 6bdc 973e
00000230: 1645 a03e 1715 7a3e fa8b dfbe ba6b 35be
00000240: ead3 a23e bdf1 59be 8fc1 2dbb 9d76 d6be
00000250: 15e9 713e 325e a8bd 1f91 c0be 15b1 323e
00000260: 6c5f 9cbe 7cbf b83e 4d6c e1bd e47e 73bd
00000270: 6b04 b5be ba4d a2be e3aa fb3d 9998 9fbe
00000280: 9546 30be 767b 92bc 8048 9cbe b4a1 24be
00000290: c0e6 3d3e 59b6 18bf 3fc4 31be 5b44 a5be
000002a0: 7aec 9ebe 2bb4 6ebc afa6 903c 8a82 29bd
000002b0: b1db efbd 62c3 893e 0600 fbbe 3eaa b3be
000002c0: fae5 04be 6ee5 203e bcbe ad3e dd69 b5be
000002d0: f98b 30be 545f 08be f882 293e 6324 833e
000002e0: 7f79 26be 5316 9d3d 297f 8dbd 352a f63c
000002f0: 8dbf a1be 967c cfbe fa6f dd3c 8590 223e
00000300: 5b82 b83d 7a22 87bd 55d3 c2be e934 963c
00000310: b4db 03bf 382e aa3e 6b45 af3e 7e8d a03e
00000320: 8272 903e d8fe 48bd e4d0 823a 0b96 7b3e
00000330: faa7 79be a98b cb3e 6f3b b23e 1730 58be
00000340: f0af e1be d4df 94bd d76c 623e e10c 24be
00000350: bcee e2be 0d3d c13d 971c d43d 2adf 3b3e
00000360: 3ca8 db3d 6472 a33d 3c90 473d e756 32be
00000370: 0429 1c3e 6140 7bbe f61e 703e 4154 2cbe
-0.058716845 -0.089582734 -0.16643184 -0.20833334 -0.19268276 0.27847806 0.36847737 -0.35266876
0.40151927 -0.36756444 0.06581857 -0.13804027 0.23108196 -0.41407257 -0.2991263 -0.35009375
0.24257337 -0.3691605 0.10930328 -0.30154648 -0.44824085 -0.51943743 0.062684916 0.04852571
0.37292582 -0.18009815 0.3768233 0.0140140625 0.04900234 0.2889739 -0.40072328 0.07414181
0.037504263 0.4087798 0.08105362 0.4350354 -0.4536044 -0.18352078 -0.3796193 0.10250566
0.08852211 -0.2308492 -0.20305717 0.18425675 0.022011995 -0.09757038 0.104101755 -0.12213612
0.05170921 -0.050585043 -0.46165064 0.18132716 -0.13926423 0.06453851 0.40560713 -0.2395416
0.09540125 -0.039293405 -0.27221832 0.011618576 0.10555822 -0.26260436 0.022822639 0.05035271
-0.3524901 -0.06510276 0.38342023 0.019473173 -0.0020773753 -0.57267666 0.19232142 -0.3431719
0.106490985 0.009449904 -0.3477376 0.12905848 0.13241753 0.2683476 -0.4098136 -0.22374213
-0.07289538 0.18420608 0.29533932 -0.28452003 0.07107642 -0.3549024 -0.16449168 0.030915553
0.31560063 -0.1221004 0.08417586 -0.54026663 -0.52272344 -0.3279348 0.060413264 0.3105641
-0.23025978 -0.56227076 0.21727009 0.17289889 0.31799924 -0.71448576 -0.28797626 0.18130726
0.235308 -0.31216738 0.18372719 -0.35316184 -0.0056173336 0.0028717637 -0.44442475 -0.30535647
0.3433656 0.31582564 0.3270073 -0.16387418 -0.27040642 -0.023958383 0.05244577 -0.09941333
0.29474095 0.21658199 -0.39769238 -0.44216135 -0.22837071 -0.04694882 -0.3015635 -0.3418265
0.22573 0.3637201 -0.3871459 0.3702399 -0.30148396 0.09079105 0.1624047 0.30510253
0.15951198 0.26983115 -0.16719581 0.29660353 0.31302708 0.24422108 -0.4366148 -0.17716876
0.31802303 -0.21283622 -0.0026513075 -0.4188737 0.2362407 -0.08221091 -0.3761072 0.17450364
-0.3054155 0.3608359 -0.11006985 -0.059447184 -0.35354933 -0.31699926 0.122884534 -0.3117111
-0.17214425 -0.017881136 -0.30524063 -0.1607731 0.18545055 -0.5965324 -0.17360018 -0.32278714
-0.31039792 -0.014569323 0.017657606 -0.041384257 -0.11711825 0.26906878 -0.49023455 -0.35090822
-0.12978354 0.1571252 0.3393458 -0.3543233 -0.17240895 -0.13317615 0.16553867 0.25613698
-0.16257285 0.07670274 -0.069090195 0.030049423 -0.31591454 -0.4052474 0.027030934 0.15875442
0.09009238 -0.06598373 -0.3805186 0.018335776 -0.51507115 0.33238387 0.3423265 0.3135795
0.28212363 -0.049071163 0.0009980467 0.24568956 -0.24380484 0.3975499 0.3481097 -0.21112095
-0.44079542 -0.07269254 0.22111832 -0.16020538 -0.44322765 0.09435473 0.103570156 0.18346849
0.107254475 0.07980803 0.048721537 -0.17415963 0.15250021 -0.24536277 0.2344931 -0.16829015

sequential_18/dense_55/MatMul i1 [32, 64] scale=0.0025652642 zero_point=0
00000000: 1fa4 2579 b3b7 f6ac f133 1d5d b7b1 ae15
00000010: 05ed 2aa3 1d65 9fc9 f251 53f3 f1a0 6629
00000020: 0d15 d70b 1dcd 4a50 a9c4 233d 54f2 102d
00000030: ba94 f1e2 ab3f 1429 cbc1 43b1 44d5 ef5b
00000040: 0bda ba51 dccc 3aa6 0b1a 2023 d45f cd5e
00000050: d340 be4f ea4c 2230 e718 3b21 d2a4 3e0f
00000060: 0c31 d908 ed2c c5c0 40b2 70f9 d31c d1d3
00000070: bec1 fdea ad1e d328 c0c6 e557 511e b666
00000080: 63a9 2b2f 392f 2205 0436 8d32 c2c1 f827
00000090: fba4 23aa eb04 e452 ce05 f1b5 62b5 1fdb
000000a0: 4c40 e116 401e 9f4d 4757 aadb 0a34 d1b7
000000b0: 4645 435b f9dc d19a d01c ac95 163e d928
000000c0: 50d8 db34 a303 46aa 276b eea7 dee6 d9c0
000000d0: a80d d647 112a eb0a 15bb e01e 4b06 3c17
000000e0: d2a0 1424 eb56 059b 4bd8 3b44 ff12 1cfe
000000f0: 3e92 c42b 03cf c32f 5b08 910d fa0d 4195
0.07952319 -0.23600431 0.09491478 0.31039697 -0.19752535 -0.1872643 -0.025652643 -0.21548219
-0.038478963 0.13082847 0.07439266 0.23856957 -0.1872643 -0.20265588 -0.21035166 0.053870548
0.012826322 -0.048740022 0.107741095 -0.23856957 0.07439266 0.25909168 -0.24883063 -0.14108953
-0.0359137 0.2077864 0.21291693 -0.033348434 -0.038478963 -0.24626537 0.26165694 0.10517583
0.033348434 0.053870548 -0.10517583 0.028217906 0.07439266 -0.13082847 0.18982956 0.20522115
-0.22317798 -0.15391585 0.08978425 0.15648112 0.21548219 -0.0359137 0.041044228 0.11543689
-0.1795685 -0.27704853 -0.038478963 -0.076957926 -0.21804745 0.16161165 0.051305287 0.10517583
-0.135959 -0.16161165 0.1718727 -0.20265588 0.17443797 -0.11030636 -0.043609492 0.23343904
0.028217906 -0.097480044 -0.1795685 0.2077864 -0.092349514 -0.13339373 0.14878532 -0.23087378
0.028217906 0.06669687 0.082088456 0.08978425 -0.112871625 0.2437001 -0.13082847 0.24113484
-0.11543689 0.16417691 -0.16930744 0.20265588 -0.056435812 0.19496009 0.087218985 0.12313268
-0.0641316 0.06156634 0.15135059 0.08465372 -0.118002154 -0.23600431 0.15904638 0.038478963
0.03078317 0.12569794 -0.10004531 0.020522114 -0.048740022 0.112871625 -0.15135059 -0.16417691
0.16417691 -0.20009062 0.2873096 -0.01795685 -0.11543689 0.0718274 -0.12056742 -0.11543689
-0.16930744 -0.16161165 -0.0076957927 -0.056435812 -0.21291693 0.076957926 -0.11543689 0.10261057
-0.16417691 -0.14878532 -0.06926213 0.22317798 0.2077864 0.076957926 -0.18982956 0.26165694
0.25396115 -0.22317798 0.11030636 0.12056742 0.14622006 0.12056742 0.087218985 0.012826322
0.010261057 0.13852426 -0.29500538 0.1282632 -0.15904638 -0.16161165 -0.020522114 0.10004531
-0.012826322 -0.23600431 0.08978425 -0.22061272 -0.053870548 0.010261057 -0.0718274 0.21035166
-0.1282632 0.012826322 -0.038478963 -0.19239482 0.25139588 -0.19239482 0.07952319 -0.09491478
0.19496009 0.16417691 -0.07952319 0.056435812 0.16417691 0.076957926 -0.24883063 0.19752535
0.18213376 0.22317798 -0.22061272 -0.09491478 0.025652643 0.13339373 -0.12056742 -0.1872643
0.1795685 0.17700323 0.1718727 0.23343904 -0.01795685 -0.092349514 -0.12056742 -0.26165694
-0.12313268 0.0718274 -0.21548219 -0.27448326 0.056435812 0.15904638 -0.10004531 0.10261057
0.20522115 -0.10261057 -0.09491478 0.13339373 -0.23856957 0.0076957927 0.1795685 -0.22061272
0.10004531 0.27448326 -0.046174757 -0.22830851 -0.087218985 -0.06669687 -0.10004531 -0.16417691
-0.22574325 0.033348434 -0.107741095 0.18213376 0.043609492 0.107741095 -0.053870548 0.025652643
0.053870548 -0.17700323 -0.082088456 0.076957926 0.19239482 0.015391585 0.15391585 0.059001077
-0.118002154 -0.24626537 0.051305287 0.092349514 -0.053870548 0.22061272 0.012826322 -0.25909168
0.19239482 -0.10261057 0.15135059 0.17443797 -0.0025652642 0.046174757 0.0718274 -0.0051305285
0.15904638 -0.28217906 -0.15391585 0.11030636 0.0076957927 -0.12569794 -0.15648112 0.12056742
0.23343904 0.020522114 -0.28474432 0.033348434 -0.015391585 0.033348434 0.16674218 -0.27448326

sequential_18/dense_54/MatMul i1 [64, 64] scale=0.0030416814 zero_point=0
00000000: fff5 f5f0 cfe5 fbb0 3605 31ba f9cc 01d6
00000010: 2908 f224 d726 abef 1507 c7c2 0421 08f8
00000020: 26d1 2a0e 1131 ddfb cc1c 0b31 e0bd 0a37
00000030: fec3 e004 2a0e ccc5 efef c5b7 bfc6 e016
00000040: e1e7 9738 f0aa 13b1 26b4 1aee 163f aafc
00000050: 12d8 d008 f20b 2813 26ee d1e6 17bb f5c1
00000060: bde1 31e1 bdf6 f6b8 dcef ca00 0ef1 d326
00000070: e9d7 d0d3 210d 37f8 ec1f 2512 a1a0 b80a
00000080: fa3d e73b 0237 1ad6 0211 06f8 cec6 43ff
00000090: f31b 26dc c20c baea 0f2d 1be7 e946 4948
000000a0: 0d3b 15c1 431a 4001 2acc 2d16 2fc8 3747
000000b0: fdc3 dd09 14f0 29d2 f1ea 11e1 094d 49f2
000000c0: 1825 2515 c4d0 2500 43d4 f904 d4e2 d331
000000d0: 2f3a d4e1 40f9 e9c4 fbbb 03c7 fd23 52fb
000000e0: eedc 4410 e040 bce9 f7c6 43dd 1402 c9e5
000000f0: 1007 aa52 fbe0 f83a 090e c93b 111d fce6
-0.0030416814 -0.033458494 -0.033458494 -0.048666902 -0.14904238 -0.082125396 -0.015208406 -0.2433345
0.16425079 0.015208406 0.14904238 -0.2129177 -0.02129177 -0.15816744 0.0030416814 -0.12775062
0.124708936 0.024333451 -0.04258354 0.10950053 -0.124708936 0.11558389 -0.25854293 -0.051708583
0.06387531 0.02129177 -0.17337584 -0.18858424 0.0121667255 0.10037549 0.024333451 -0.024333451
0.11558389 -0.14295903 0.12775062 0.04258354 0.051708583 0.14904238 -0.10645885 -0.015208406
-0.15816744 0.08516708 0.033458494 0.14904238 -0.097333804 -0.20379265 0.030416813 0.16729248
-0.0060833627 -0.18554257 -0.097333804 0.0121667255 0.12775062 0.04258354 -0.15816744 -0.1794592
-0.051708583 -0.051708583 -0.1794592 -0.22204274 -0.19770929 -0.17641751 -0.097333804 0.06691699
-0.09429212 -0.076042034 -0.31937656 0.17033416 -0.048666902 -0.2615846 0.057791945 -0.24029283
0.11558389 -0.23116778 0.07908372 -0.054750264 0.06691699 0.19162592 -0.2615846 -0.0121667255
0.054750264 -0.12166725 -0.14600071 0.024333451 -0.04258354 0.033458494 0.12166725 0.057791945
0.11558389 -0.054750264 -0.14295903 -0.07908372 0.06995867 -0.20987602 -0.033458494 -0.19162592
-0.20379265 -0.09429212 0.14904238 -0.09429212 -0.20379265 -0.030416813 -0.030416813 -0.21900105
-0.10950053 -0.051708583 -0.16425079 0.0 0.04258354 -0.04562522 -0.13687566 0.11558389
-0.06995867 -0.124708936 -0.14600071 -0.13687566 0.10037549 0.03954186 0.16729248 -0.024333451
-0.060833625 0.09429212 0.11254221 0.054750264 -0.28895974 -0.29200143 -0.21900105 0.030416813
-0.01825009 0.18554257 -0.076042034 0.1794592 0.0060833627 0.16729248 0.07908372 -0.12775062
0.0060833627 0.051708583 0.01825009 -0.024333451 -0.15208407 -0.17641751 0.20379265 -0.0030416814
-0.03954186 0.082125396 0.11558389 -0.10950053 -0.18858424 0.03650018 -0.2129177 -0.06691699
0.04562522 0.13687566 0.082125396 -0.076042034 -0.06995867 0.2129177 0.22204274 0.21900105
0.03954186 0.1794592 0.06387531 -0.19162592 0.20379265 0.07908372 0.19466761 0.0030416814
0.12775062 -0.15816744 0.13687566 0.06691699 0.14295903 -0.17033416 0.16729248 0.21595937
-0.009125045 -0.18554257 -0.10645885 0.027375132 0.060833625 -0.048666902 0.124708936 -0.13991734
-0.04562522 -0.06691699 0.051708583 -0.09429212 0.027375132 0.23420946 0.22204274 -0.04258354
0.07300036 0.11254221 0.11254221 0.06387531 -0.18250088 -0.14600071 0.11254221 0.0
0.20379265 -0.13383397 -0.02129177 0.0121667255 -0.13383397 -0.09125044 -0.13687566 0.14904238
0.14295903 0.17641751 -0.13383397 -0.09429212 0.19466761 -0.02129177 -0.06995867 -0.18250088
-0.015208406 -0.20987602 0.009125045 -0.17337584 -0.009125045 0.10645885 0.24941787 -0.015208406
-0.054750264 -0.10950053 0.20683433 0.048666902 -0.097333804 0.19466761 -0.20683433 -0.06995867
-0.027375132 -0.17641751 0.20379265 -0.10645885 0.060833625 0.0060833627 -0.16729248 -0.082125396
0.048666902 0.02129177 -0.2615846 0.24941787 -0.015208406 -0.097333804 -0.024333451 0.17641751
0.027375132 0.04258354 -0.16729248 0.1794592 0.051708583 0.08820876 -0.0121667255 -0.07908372

sequential_18/lstm_54/while/lstm_cell/BiasAdd/ReadVariableOp f4 [256]
00000000: f778 0c3b 6f30 d4bb d89f f1bb 642e ad3b
00000010: ca72 ff3b 9bda b7bb 6c4b f2ba 59a7 053b
00000020: e34a f1bb d8a5 c6bb 6991 a8bb 36a5 07bc
00000030: 2286 43ba 5796 b8bb 61fb c4bb 08b5 9fbb
00000040: ec0b 00bc 462b 1dbc c916 83bb ab78 83bb
00000050: a852 82bb f427 86bb 5cba 17bc 1f93 f0bb
00000060: 61aa 0ebc aca6 a9bb 4d5b c1bb c227 88bb
00000070: 26d9 f4bb 3fbd ebbb 860e c4bb 53d4 e4bb
00000080: e0f7 c33a a904 b7bb d338 6cbc 2025 d4bb
00000090: a021 8f3a efbb bfbb 5e58 59bc cc94 a2bb
000000a0: ec80 9bbb a08c 0bbb 4660 0cbc 6820 053b
000000b0: 8303 8dbb c213 22bb 7bc4 e5bb 152a b2bb
000000c0: 6247 863c d986 42bc bbfe 1fbc cff2 c4bb
000000d0: 49df b3bb d870 eebb 0494 033a d3f4 46bc
000000e0: 5c46 cabb a6a7 8abb 28de c0bb c061 a5bb
000000f0: 0894 0cba e737 31bb 7a3e 7fbc 0000 0000
00000100: af47 7c3f e108 7f3f 66fb 7d3f 89ad 803f
00000110: a6f9 7d3f ea96 7e3f d89a 7e3f ad22 803f
00000120: a5f7 7d3f a076 7e3f 44b2 7e3f 222a 7f3f
00000130: ebc0 7f3f 4481 7e3f 5576 7e3f 03a4 7e3f
00000140: 4ef6 7d3f bfae 7d3f 789b 7d3f 4c05 803f
00000150: d0cd 7e3f ad1a 7f3f 3c9f 7d3f 53f4 7d3f
00000160: 75f0 7d3f 2faa 7e3f 597b 7e3f 48e8 7e3f
00000170: 0b5c 7e3f 7d4f 7e3f 5077 7e3f c123 7e3f
00000180: b36b 7f3f 034e 7e3f e15d 7d3f c84c 7e3f
00000190: cca9 7b3f 3d7d 7e3f ab71 7d3f 9400 7d3f
000001a0: abc8 803f dd29 7f3f afcc 7d3f 20e7 7f3f
000001b0: 9aee 7e3f 18b7 7e3f be45 7e3f 3189 7e3f
000001c0: f9db 803f 0074 7b3f 635f 823f cb8f 7e3f
000001d0: 7721 7e3f 20bb 7d3f 2bf1 7e3f 88dc 7c3f
000001e0: a261 7e3f fa88 7f3f c17c 7e3f 02e7 7e3f
000001f0: e845 7f3f 6359 7d3f e017 7c3f 0000 803f
00000200: a434 3fbc ca83 dfbb eb03 0fbc 9f28 afbb
00000210: bf78 77bc 96fc d1bb 8b9a 3dbb 2641 d7bb
00000220: ccde 06bc 4c62 c6bb e2f8 a8bb fba3 3fbc
00000230: 6c78 efbb 69ef b2bb ceff c8bb dcce 4abb
00000240: c844 a6bb 508d a7bb 73c2 7cbb d2ba dbbb
00000250: bf21 91bb 4d56 32bb 0778 10bc 86eb bbbb
00000260: 91b1 48bb bfc4 c3bb ccb9 bfbb 16ed f9ba
00000270: 8542 e6bb 220a 0fbc edbd c4bb b7be 5cbc
00000280: 8e2b 87ba ff9d 94bb f443 72bc fc52 d6bb
00000290: d40a 7cbc 2686 10bc c24f 30bc fb59 3cbc
000002a0: e455 843b 6ef7 0cbb 61f0 09bc a398 46bc
000002b0: 9277 56bb da29 acbb 1af7 04bc 817d 00bc
000002c0: ee12 4b3c 080a 24bc 4373 15b9 c92c b5bb
000002d0: 02af 8abb 9c51 38bc 8e1f 49bc a683 f3bb
000002e0: 4a5d 0abc ae62 2fbb 8e7f c4bb 7bc3 7dbb
000002f0: fda9 87bc ea75 6cbb 1aed 97bc 0000 0000
00000300: c57b f5bb e421 ccbb 8ff2 f5bb 05b9 ab3b
00000310: 2dc5 3e3b f7a6 babb 4659 7eba 75aa 153b
00000320: dc7b f9bb fcb2 c5bb 139d a7bb 7fcc a2bb
00000330: a887 a839 652b a9bb 24f4 c4bb c118 a0bb
00000340: 0512 e8bb 5ba1 1dbc a063 f5bb 0dc6 84bb
00000350: 1799 93bb 265d 6abb d0d3 17bc 4474 0ebc
00000360: 38d7 10bc 4a41 a5bb 6eef bcbb 3793 87bb
00000370: b9ef e8bb b11e dabb bfb8 c3bb 679c e4bb
00000380: 096b 5b3a b350 23bb d35b 6fbc c8d5 ccbb
00000390: cc1b 34bc 605b c0bb 93df 53bc 3043 05bc
000003a0: 9a15 b7bb d546 a9ba 646a 0bbc 5885 6dba
000003b0: 62ae 7abb a9f0 3ebb 2e03 e0bb ae06 b3bb
000003c0: ad4c 463b 8c83 53bb ad46 ad3b 04b8 68bb
000003d0: 08ea e8bb 18bd 19bc b039 93bb fab4 51bc
000003e0: f786 c5bb 66b2 8cbb 4cc2 c0bb b648 82bb
000003f0: aa83 8b3b 9116 cabb eb8d 8cbc 0000 0000
0.0021434405 -0.0064755003 -0.007373791 0.005285071 0.0077956663 -0.0056107766 -0.0018485612 0.0020393936
-0.0073636635 -0.0060622506 -0.0051442874 -0.008279135 -0.0007458647 -0.0056331563 -0.006011412 -0.0048738755
-0.007815342 -0.009592837 -0.004000519 -0.0040121875 -0.0039771385 -0.0040941183 -0.00926074 -0.007341757
-0.008707614 -0.0051773395 -0.0059007765 -0.00415513 -0.007472175 -0.0071941908 -0.0059831766 -0.006983319
0.0014951192 -0.0055852723 -0.014417845 -0.006474152 0.0010920055 -0.005851261 -0.013265697 -0.0049615856
-0.0047455933 -0.0021293536 -0.008567875 0.0020313505 -0.004303397 -0.0024731015 -0.0070119477 -0.0054371455
0.01639146 -0.0118729705 -0.009765322 -0.0060103904 -0.005489264 -0.0072766356 0.00050193095 -0.012143332
-0.0061729383 -0.004231411 -0.005885858 -0.005047053 -0.00053626345 -0.0027041377 -0.01557886 0.0
0.9854688 0.99622923 0.9921173 1.0052959 0.9920906 0.99449027 0.9945502 1.0010582
0.99206 0.9939976 0.9949076 0.99673665 0.99903744 0.99415994 0.9939931 0.9946901
0.99203956 0.99094766 0.9906535 1.0001616 0.99532795 0.9965008 0.990711 0.99200934
0.99195033 0.9947843 0.99406964 0.99573183 0.99359196 0.9934004 0.99400806 0.99273306
0.9977371 0.99337786 0.9897137 0.9933591 0.98305964 0.9940985 0.9900157 0.9882901
1.0061239 0.99673253 0.9914045 0.99962044 0.9958283 0.9949813 0.9932517 0.9942809
1.006713 0.98223877 1.018536 0.9943816 0.99269813 0.99113655 0.99586743 0.98774004
0.99367726 0.99818385 0.9940911 0.9957124 0.99716043 0.9896452 0.9847393 1.0
-0.011670265 -0.0068211304 -0.008728961 -0.0053454186 -0.015104472 -0.0064082844 -0.0028931226 -0.0065690456
-0.00823183 -0.0060541984 -0.0051566223 -0.011696811 -0.0073080566 -0.005460669 -0.00613401 -0.0030946052
-0.0050741173 -0.0051132813 -0.003856805 -0.0067056203 -0.0044290717 -0.0027212084 -0.008817679 -0.0057348637
-0.0030623416 -0.0059743817 -0.005851006 -0.001906785 -0.0070269727 -0.008730443 -0.006004086 -0.013473204
-0.0010312663 -0.004535436 -0.014786709 -0.006540654 -0.015383441 -0.008821046 -0.010761203 -0.011496062
0.0040385593 -0.0021509784 -0.008419127 -0.012121352 -0.0032725078 -0.0052540125 -0.008115554 -0.007842422
0.01239465 -0.010012157 -0.00014252686 -0.0055290204 -0.0042322883 -0.011249926 -0.01227559 -0.007431465
-0.008445093 -0.0026761699 -0.005996651 -0.0038721252 -0.016560549 -0.0036081024 -0.018545676 0.0
-0.007491561 -0.006229626 -0.007505722 0.005240562 0.0029109225 -0.0056961733 -0.0009702634 0.0022837196
-0.007613642 -0.0060332995 -0.0051151603 -0.0049682255 0.0003214453 -0.0051626437 -0.006010549 -0.0048857634
-0.007082226 -0.00962099 -0.007488683 -0.00405193 -0.0045043337 -0.0035761087 -0.009266809 -0.008694712
-0.008840375 -0.0050431835 -0.005765847 -0.0041374224 -0.0071086553 -0.0066564907 -0.005972951 -0.0069766524
0.00083701365 -0.0024919927 -0.014609295 -0.0062510706 -0.010992955 -0.0058702677 -0.012931722 -0.0081336945
-0.005587292 -0.0012914786 -0.008509252 -0.0009060702 -0.0038250913 -0.0029135144 -0.0068363165 -0.0054634428
0.0030258105 -0.0032274453 0.005287966 -0.0035510072 -0.007107977 -0.009383462 -0.004492961 -0.012799496
-0.006028052 -0.0042937277 -0.005882537 -0.003975953 0.004257639 -0.006167241 -0.017157516 0.0

sequential_18/lstm_54/while/lstm_cell/MatMul1 i1 [256, 1662] scale=0.003701295 zero_point=0
00000000: 090f ef06 f50e 0df9 0ef5 0307 08fb 0af8
00000010: 0005 0801 0ef3 fb0c 02f3 f709 0ff9 fc02
00000020: f8f7 f309 f30e fc03 fd01 09f6 f50b fbfb
00000030: 0005 070d f7fd fe05 f60b fcf4 0a03 0d0d
00000040: 0af7 fbfd 01f7 0706 f60a 0bf7 120d fe06
00000050: f606 04fe 06f5 fe0a 08fd f20c fa0e 06f9
00000060: f80e 0df2 02f9 0403 06f2 12f3 fdf5 06f4
00000070: fffb 0500 fa0f fc08 05f5 0903 f710 0807
00000080: 0704 f6f8 f2f9 ff0c 0904 f3f2 0106 100c
00000090: f404 f7fc 0d03 0904 fb08 040e 0b0d f90a
000000a0: f4fd fffc 1104 0af5 f9ff 000d 0af7 ff09
000000b0: 0af7 0f0b 0906 0207 f600 01f5 fc08 fe08
000000c0: 090c fd03 0203 f804 f6f6 f5ff f806 00fe
000000d0: 0004 0007 f7fb fefc 0cf9 1002 f8ff fef6
000000e0: 08fe 060d 0bfe 0aff 0f00 0c07 0efc 0305
000000f0: f70b 0706 02f7 04fb fcf2 00f5 f807 0804
0.033311654 0.055519424 -0.062922016 0.02220777 -0.040714245 0.05181813 0.048116837 -0.025909064
0.05181813 -0.040714245 0.011103885 0.025909064 0.02961036 -0.018506475 0.03701295 -0.02961036
0.0 0.018506475 0.02961036 0.003701295 0.05181813 -0.048116837 -0.018506475 0.04441554
0.00740259 -0.048116837 -0.033311654 0.033311654 0.055519424 -0.025909064 -0.01480518 0.00740259
-0.02961036 -0.033311654 -0.048116837 0.033311654 -0.048116837 0.05181813 -0.01480518 0.011103885
-0.011103885 0.003701295 0.033311654 -0.03701295 -0.040714245 0.040714245 -0.018506475 -0.018506475
0.0 0.018506475 0.025909064 0.048116837 -0.033311654 -0.011103885 -0.00740259 0.018506475
-0.03701295 0.040714245 -0.01480518 -0.04441554 0.03701295 0.011103885 0.048116837 0.048116837
0.03701295 -0.033311654 -0.018506475 -0.011103885 0.003701295 -0.033311654 0.025909064 0.02220777
-0.03701295 0.03701295 0.040714245 -0.033311654 0.06662331 0.048116837 -0.00740259 0.02220777
-0.03701295 0.02220777 0.01480518 -0.00740259 0.02220777 -0.040714245 -0.00740259 0.03701295
0.02961036 -0.011103885 -0.05181813 0.04441554 -0.02220777 0.05181813 0.02220777 -0.025909064
-0.02961036 0.05181813 0.048116837 -0.05181813 0.00740259 -0.025909064 0.01480518 0.011103885
0.02220777 -0.05181813 0.06662331 -0.048116837 -0.011103885 -0.040714245 0.02220777 -0.04441554
-0.003701295 -0.018506475 0.018506475 0.0 -0.02220777 0.055519424 -0.01480518 0.02961036
0.018506475 -0.040714245 0.033311654 0.011103885 -0.033311654 0.05922072 0.02961036 0.025909064
0.025909064 0.01480518 -0.03701295 -0.02961036 -0.05181813 -0.025909064 -0.003701295 0.04441554
0.033311654 0.01480518 -0.048116837 -0.05181813 0.003701295 0.02220777 0.05922072 0.04441554
-0.04441554 0.01480518 -0.033311654 -0.01480518 0.048116837 0.011103885 0.033311654 0.01480518
-0.018506475 0.02961036 0.01480518 0.05181813 0.040714245 0.048116837 -0.025909064 0.03701295
-0.04441554 -0.011103885 -0.003701295 -0.01480518 0.062922016 0.01480518 0.03701295 -0.040714245
-0.025909064 -0.003701295 0.0 0.048116837 0.03701295 -0.033311654 -0.003701295 0.033311654
0.03701295 -0.033311654 0.055519424 0.040714245 0.033311654 0.02220777 0.00740259 0.025909064
-0.03701295 0.0 0.003701295 -0.040714245 -0.01480518 0.02961036 -0.00740259 0.02961036
0.033311654 0.04441554 -0.011103885 0.011103885 0.00740259 0.011103885 -0.02961036 0.01480518
-0.03701295 -0.03701295 -0.040714245 -0.003701295 -0.02961036 0.02220777 0.0 -0.00740259
0.0 0.01480518 0.0 0.025909064 -0.033311654 -0.018506475 -0.00740259 -0.01480518
0.04441554 -0.025909064 0.05922072 0.00740259 -0.02961036 -0.003701295 -0.00740259 -0.03701295
0.02961036 -0.00740259 0.02220777 0.048116837 0.040714245 -0.00740259 0.03701295 -0.003701295
0.055519424 0.0 0.04441554 0.025909064 0.05181813 -0.01480518 0.011103885 0.018506475
-0.033311654 0.040714245 0.025909064 0.02220777 0.00740259 -0.033311654 0.01480518 -0.018506475
-0.01480518 -0.05181813 0.0 -0.040714245 -0.02961036 0.025909064 0.02961036 0.01480518

sequential_18/lstm_54/while/lstm_cell/MatMul_1 i1 [256, 64] scale=0.002124877 zero_point=0
00000000: 2a37 efc6 34f5 dcee ee01 0133 0de4 f538
00000010: 40f6 2534 f1fa 00e1 4bd2 0a02 35eb 0cec
00000020: 30d2 03f9 d7e2 2b2f fbea 1016 def5 0d02
00000030: ebe5 20f6 181d 3ceb 080f 2026 feea f003
00000040: f702 1916 ee3a 12f2 1c13 e52b 34fa 0fe2
00000050: e009 aaed 3fb7 ea1a 21ec d0d9 0a0c f4cc
00000060: e333 d124 0c17 dbeb f704 fbe8 e808 1938
00000070: 2802 ede5 fa20 d20b 04da c32b 04f3 f4f0
00000080: 0900 3510 050f c10f 1601 cff8 e2d8 d9e5
00000090: d12e e9e9 07df e4e3 1cf1 f308 fa02 11ee
000000a0: 26f7 efdc f918 ff02 fc0b f306 f4da 12fc
000000b0: 10e0 2529 fffe 0804 f3ec 0400 e7bf f333
000000c0: ea28 0308 0c13 fcdb e4f9 2aef 20b9 34ea
000000d0: 052e f3c0 f81d 17fe 1b0d 0d29 fd21 03f6
000000e0: 060f 1c0a ef05 dd2e ecd4 f816 432a d7ff
000000f0: 0513 22ee 0523 e923 ff0a bec8 0e21 e111
0.089244835 0.116868235 -0.036122907 -0.12324286 0.1104936 -0.023373647 -0.07649557 -0.038247786
-0.038247786 0.002124877 0.002124877 0.108368725 0.0276234 -0.059496555 -0.023373647 0.11899311
0.13599212 -0.021248769 0.07862045 0.1104936 -0.031873155 -0.012749262 0.0 -0.06587119
0.15936577 -0.09774434 0.021248769 0.004249754 0.112618476 -0.044622418 0.025498524 -0.042497538
0.1019941 -0.09774434 0.006374631 -0.014874139 -0.08711995 -0.06374631 0.09136971 0.099869214
-0.0106243845 -0.046747293 0.03399803 0.046747293 -0.072245814 -0.023373647 0.0276234 0.004249754
-0.044622418 -0.057371676 0.06799606 -0.021248769 0.05099705 0.06162143 0.12749262 -0.044622418
0.016999016 0.031873155 0.06799606 0.080745324 -0.004249754 -0.046747293 -0.03399803 0.006374631
-0.019123893 0.004249754 0.053121924 0.046747293 -0.038247786 0.12324286 0.038247786 -0.029748278
0.059496555 0.040372662 -0.057371676 0.09136971 0.1104936 -0.012749262 0.031873155 -0.06374631
-0.06799606 0.019123893 -0.18273942 -0.040372662 0.13386725 -0.15511602 -0.046747293 0.0552468
0.07012094 -0.042497538 -0.1019941 -0.0828702 0.021248769 0.025498524 -0.025498524 -0.1104936
-0.06162143 0.108368725 -0.099869214 0.07649557 0.025498524 0.04887217 -0.07862045 -0.044622418
-0.019123893 0.008499508 -0.0106243845 -0.05099705 -0.05099705 0.016999016 0.053121924 0.11899311
0.084995076 0.004249754 -0.040372662 -0.057371676 -0.012749262 0.06799606 -0.09774434 0.023373647
0.008499508 -0.080745324 -0.1296175 0.09136971 0.008499508 -0.0276234 -0.025498524 -0.03399803
0.019123893 0.0 0.112618476 0.03399803 0.0106243845 0.031873155 -0.13386725 0.031873155
0.046747293 0.002124877 -0.10411897 -0.016999016 -0.06374631 -0.084995076 -0.0828702 -0.057371676
-0.099869214 0.09774434 -0.04887217 -0.04887217 0.014874139 -0.07012094 -0.059496555 -0.06162143
0.059496555 -0.031873155 -0.0276234 0.016999016 -0.012749262 0.004249754 0.036122907 -0.038247786
0.080745324 -0.019123893 -0.036122907 -0.07649557 -0.014874139 0.05099705 -0.002124877 0.004249754
-0.008499508 0.023373647 -0.0276234 0.012749262 -0.025498524 -0.080745324 0.038247786 -0.008499508
0.03399803 -0.06799606 0.07862045 0.08711995 -0.002124877 -0.004249754 0.016999016 0.008499508
-0.0276234 -0.042497538 0.008499508 0.0 -0.053121924 -0.138117 -0.0276234 0.108368725
-0.046747293 0.084995076 0.006374631 0.016999016 0.025498524 0.040372662 -0.008499508 -0.07862045
-0.059496555 -0.014874139 0.089244835 -0.036122907 0.06799606 -0.15086627 0.1104936 -0.046747293
0.0106243845 0.09774434 -0.0276234 -0.13599212 -0.016999016 0.06162143 0.04887217 -0.004249754
0.057371676 0.0276234 0.0276234 0.08711995 -0.006374631 0.07012094 0.006374631 -0.021248769
0.012749262 0.031873155 0.059496555 0.021248769 -0.036122907 0.0106243845 -0.07437069 0.09774434
-0.042497538 -0.09349459 -0.016999016 0.046747293 0.14236675 0.089244835 -0.08711995 -0.002124877
0.0106243845 0.040372662 0.072245814 -0.038247786 0.0106243845 0.07437069 -0.04887217 0.07437069
-0.002124877 0.021248769 -0.14024188 -0.11899311 0.029748278 0.07012094 -0.06587119 0.036122907

sequential_18/lstm_55/while/lstm_cell_1/BiasAdd/ReadVariableOp f4 [512]
00000000: 6c90 7bbb 8551 79bd 2792 91bc be24 8c3b
00000010: 14bb 24bd c490 c3bc c915 32bc 31ee ebbc
00000020: 2388 a8bc 12b6 b4bc 90d0 a0bc 556e 96bc
00000030: 60b9 6fbd 8fa7 9dbb d0d3 043b 1554 dcbc
00000040: 1d52 acbb c020 fdbc 0df3 cebc f9ed 8dbb
00000050: bd45 f6bc 669e a4bb 1bb7 d0bc 5702 2d3c
00000060: d52a 4a3c 0a5d 11bd 49f1 cebc cc05 473b
00000070: 6b6c cabc d935 bfbc ab0a 3cbd b48b 11bd
00000080: 0944 c3bc c608 9e3d 4d4f e2bb 86a4 34bc
00000090: 5487 f43b 053e ed3b 45ba 44bc 06f2 6bbc
000000a0: 54b7 b13c bc80 85bc 5ce7 b73c e61b c93a
000000b0: 07db aa3c 0651 45bd 686e 1dbd 3ee3 c2bc
000000c0: 8c90 f5bc 517f 03bd 889f 81bb 818d 20bb
000000d0: 614b b5bb 5b97 cdbb 7159 f2bb 1d48 f0bc
000000e0: ff3a f73c fff3 673c fa6c 14bd 8b88 81bc
000000f0: fb4d b9bc fdf6 d93a 5cb9 b7bc 337e 95bc
00000100: a9af bfbc d078 43bc 1a86 d8bc de52 233c
00000110: 9fa5 90bc a463 34bd 7a02 1dbd 0877 5f3b
00000120: 0b47 70bd eb37 1a3c d0c3 04bd 87cd e8bc
00000130: 8b90 d33c b12e 01bd 564b ca3d 047c 2fbd
00000140: c142 30bb dd4c eebc cbde c6bc fbf6 bebb
00000150: 0c11 febc 8a4c 373a 6343 283b 4d1b f33b
00000160: 0c8e 15bc 2e53 e93c b53f 1bbd 97c7 89bc
00000170: 11c6 ea3d 9944 443c 452b 3bbd 5e4b 56bc
00000180: 7a1c 673c 1682 123b a768 9cbc de7d fabc
00000190: 012d 15bd 7fe1 d7bc 18dd 00bb 4936 ce3b
000001a0: 4154 00bc 6eeb 833b f99d 123a bd99 62bd
000001b0: 7f45 063d 5a84 3dbc f9f1 d63c cc88 f63c
000001c0: c6f6 afbc 5e30 30bb 47b5 11bc f744 f7bc
000001d0: f878 21bd 22ac 02bd c101 513c 4b42 3bbd
000001e0: 045f b7bb 4bfb 0ebd 81a5 07bd 8e0b 233a
000001f0: 0280 aabb 0230 8bbc 90a9 07bc bfcd 86bc
00000200: 1329 7a3f 6885 723f c09a 7b3f c26b 813f
00000210: d1a1 773f 4b1f 7d3f 90f1 7d3f 472c 763f
00000220: c39e 7b3f a592 7f3f e46a 783f 1b60 803f
00000230: 1b10 733f 0b1f 7f3f 4aba 7d3f 9b91 753f
00000240: 42d8 803f 4868 773f 98f9 7f3f 9c18 7b3f
00000250: 3ef8 773f 9342 803f 71df 793f 3584 813f
00000260: 02d8 823f 1cd6 793f be0c 793f 45e6 7d3f
00000270: 599a 793f 00e8 7c3f 2ae6 763f eae8 783f
00000280: 2541 7b3f bec9 883f 5d5d 7e3f cc92 803f
00000290: 6630 813f 3ff8 873f b689 7c3f 055a 7a3f
000002a0: 6c45 803f ff39 853f e28a 813f a02c 803f
000002b0: cad4 823f 0dc2 773f cd85 783f 5fec 7c3f
000002c0: d53e 7a3f dbee 753f 8b43 7e3f 8384 803f
000002d0: 9be7 7e3f 6202 7e3f 374c 7d3f 5a1a 783f
000002e0: 65b1 803f 8a9c 833f bc98 7a3f 9ae1 7b3f
000002f0: 7e3e 7a3f 9eef 823f 2672 7a3f 78f1 7a3f
00000300: c4b5 763f c388 7d3f 327a 7e3f 631e 823f
00000310: e81a 753f 4245 783f d95e 753f 620f 813f
00000320: 9cda 723f 432a 833f 38b8 7b3f 3617 7b3f
00000330: dfe5 813f 2986 7a3f e61f 933f 148d 7a3f
00000340: 8907 803f faa4 763f a535 793f 0711 7f3f
00000350: 9f94 783f da5c 803f 9eac 7f3f 7e35 7f3f
00000360: e70c 7e3f 41a3 773f 02ce 763f 0ac4 7c3f
00000370: 165a 8e3f 0c4d 813f 35f9 743f 5105 7f3f
00000380: a11b 823f 34c1 833f 0a69 813f 0be7 763f
00000390: 7031 773f a17f 7f3f 1c7e 7b3f 1136 7f3f
000003a0: db0a 7b3f acc1 7e3f 5f4a 7e3f 4c41 773f
000003b0: ab8a 843f 0a0a 7f3f 5f55 823f c238 813f
000003c0: 70e3 783f 9e5b 7f3f 2770 7f3f ee00 7a3f
000003d0: 3fb2 723f 02f2 793f db29 8f3f b274 743f
000003e0: 5035 7f3f 7139 783f 70b4 773f 6649 7f3f
000003f0: 2327 813f f127 7c3f fc12 7e3f ea94 7d3f
-0.0038385643 -0.06086876 -0.017769886 0.004276841 -0.040217474 -0.02387274 -0.010869452 -0.028800102
-0.020572728 -0.022059474 -0.0196307 -0.018363157 -0.058526397 -0.0048112343 0.0020267852 -0.026895562
-0.005258812 -0.030899405 -0.02526238 -0.004331347 -0.03006255 -0.0050237654 -0.025477936 0.01055964
0.0123393135 -0.03548912 -0.025261538 0.0030368445 -0.0247099 -0.023341106 -0.04590861 -0.035533622
-0.023836153 0.07716517 -0.006906426 -0.011025554 0.0074624214 0.0072400593 -0.012007301 -0.014400965
0.021693863 -0.016296737 0.022449188 0.0015343397 0.020856394 -0.048172973 -0.03843537 -0.023789998
-0.029976152 -0.03210384 -0.003955785 -0.0024498405 -0.0055326675 -0.0062741465 -0.007395916 -0.029331261
0.030179499 0.014157294 -0.03623674 -0.01581218 -0.022620192 0.0016629394 -0.022427253 -0.018248653
-0.023399191 -0.011930659 -0.026431132 0.009968488 -0.0176571 -0.044040337 -0.03833244 0.0034098048
-0.0586615 0.009412746 -0.032413304 -0.028418316 0.02582576 -0.03153867 0.098776504 -0.04284288
-0.0026895257 -0.029089386 -0.024276158 -0.005827782 -0.031013988 0.0006992301 0.0025674931 0.007419026
-0.009128105 0.028482046 -0.037902553 -0.016818805 0.114635594 0.011979246 -0.045695562 -0.013079492
0.01410591 0.002235537 -0.01909287 -0.030577596 -0.036419872 -0.026352642 -0.0019663032 0.0062930924
-0.007832588 0.004025868 0.0005592998 -0.055322398 0.03278112 -0.0115672 0.026238428 0.030094527
-0.021479975 -0.0026884298 -0.008893318 -0.030184252 -0.039422005 -0.03190244 0.012756766 -0.04571752
-0.0055960435 -0.03490762 -0.03311682 0.00062196783 -0.005203248 -0.016990665 -0.008280173 -0.01645553
0.97718924 0.9473481 0.98283005 1.011101 0.9673129 0.98875874 0.9919672 0.9616131
0.98289126 0.99833137 0.970381 1.0029329 0.9494645 0.9965674 0.9911238 0.959253
1.0065997 0.96643496 0.99990225 0.98084426 0.9686316 1.0020317 0.9760657 1.0118471
1.022217 0.9759233 0.9728507 0.9917949 0.9750114 0.98791504 0.9644495 0.972304
0.9814628 1.0686567 0.9936121 1.0044799 1.0092895 1.0622634 0.9864763 0.9779361
1.0021186 1.0408324 1.0120509 1.0013618 1.0221188 0.96780473 0.97079164 0.98798174
0.97752124 0.9606759 0.9932181 1.0040439 0.9957215 0.99222386 0.9894442 0.9691521
1.0054137 1.0282147 0.97889304 0.98391116 0.97751606 1.0229375 0.97830427 0.980247
0.963711 0.99036807 0.99405205 1.0165523 0.9574418 0.9698068 0.9584785 1.008282
0.9486482 1.0247272 0.9832797 0.9808229 1.0148276 0.9786096 1.149411 0.9787152
1.00023 0.96345484 0.9734748 0.99635357 0.9710178 1.0028336 0.9987277 0.99691
0.9923844 0.9673348 0.9640809 0.9873663 1.1121242 1.0101638 0.9569276 0.9961749
1.0164682 1.0293336 1.011018 0.96446294 0.9655981 0.9980412 0.982393 0.99691874
0.9806344 0.9951427 0.9933223 0.9658401 1.0354818 0.99624693 1.0182303 1.0095446
0.9722204 0.9974917 0.99780506 0.9765767 0.9480323 0.976349 1.1184648 0.9549056
0.99690723 0.9696265 0.967597 0.9972137 1.0090069 0.98498446 0.9924772 0.9905535

sequential_18/lstm_55/while/lstm_cell_1/MatMul1 i1 [512, 64] scale=0.0016177127 zero_point=0
00000000: 26c8 312b 060f e036 0722 c515 de00 f60c
00000010: 28ec f2c9 d52f b93a d107 30f7 e3df 0d06
00000020: 1215 1519 1c07 3c37 cc34 cb01 37eb 2121
00000030: d7d6 28d1 0a23 18c7 cac8 1f1b f5e2 19cb
00000040: f5f7 22ee e63e ef17 c4e0 101b cafc f311
00000050: 3a10 2e01 2eeb f3ee d01e 191d 2826 2929
00000060: e201 2715 d003 e425 f93e de05 0807 02d0
00000070: a327 0824 1005 0eda c9e0 cf0e ce29 d716
00000080: bece e23d dace dbfc 10f8 1602 ddc0 f334
00000090: 270c fecd 22cd d525 f03a d1d2 02f1 09d4
000000a0: fe18 0439 3c2b 1d2a cdfa 0e0b ff21 f7f1
000000b0: d1cf 0ccf 3807 0dfe 34d1 26db 391c c82b
000000c0: c7fc c8ee 3205 e225 e7f3 2ada fdd6 dee1
000000d0: 35ff 3b19 f7e8 2df1 cbf8 df32 1f04 0aef
000000e0: 33d2 1f2a 3d0f e2d4 f5fa f8c8 3de8 1c18
000000f0: 2ef4 c01c 032f 2b1f 0bf8 c1e4 03ce 36fa
0.061473083 -0.09059191 0.07926792 0.069561645 0.009706276 0.02426569 -0.051766805 0.087356485
0.011323988 0.05500223 -0.095445044 0.033971965 -0.05500223 0.0 -0.016177127 0.019412551
0.06470851 -0.032354254 -0.022647977 -0.0889742 -0.069561645 0.0760325 -0.1148576 0.09382734
-0.0760325 0.011323988 0.077650204 -0.014559414 -0.04691367 -0.053384516 0.021030264 0.009706276
0.029118828 0.033971965 0.033971965 0.040442817 0.045295954 0.011323988 0.09706276 0.0889742
-0.084121056 0.084121056 -0.08573877 0.0016177127 0.0889742 -0.033971965 0.053384516 0.053384516
-0.066326216 -0.06794393 0.06470851 -0.0760325 0.016177127 0.056619942 0.038825102 -0.09220962
-0.087356485 -0.09059191 0.050149094 0.043678243 -0.01779484 -0.04853138 0.040442817 -0.08573877
-0.01779484 -0.014559414 0.05500223 -0.029118828 -0.042060528 0.10029819 -0.027501116 0.03720739
-0.09706276 -0.051766805 0.025883403 0.043678243 -0.087356485 -0.0064708507 -0.021030264 0.027501116
0.09382734 0.025883403 0.07441478 0.0016177127 0.07441478 -0.033971965 -0.021030264 -0.029118828
-0.077650204 0.04853138 0.040442817 0.04691367 0.06470851 0.061473083 0.066326216 0.066326216
-0.04853138 0.0016177127 0.063090794 0.033971965 -0.077650204 0.004853138 -0.045295954 0.059855368
-0.011323988 0.10029819 -0.05500223 0.008088564 0.012941701 0.011323988 0.0032354253 -0.077650204
-0.15044728 0.063090794 0.012941701 0.058237657 0.025883403 0.008088564 0.022647977 -0.061473083
-0.0889742 -0.051766805 -0.07926792 0.022647977 -0.080885634 0.066326216 -0.066326216 0.03558968
-0.10676903 -0.080885634 -0.04853138 0.098680474 -0.061473083 -0.080885634 -0.059855368 -0.0064708507
0.025883403 -0.012941701 0.03558968 0.0032354253 -0.056619942 -0.10353361 -0.021030264 0.084121056
0.063090794 0.019412551 -0.0032354253 -0.08250335 0.05500223 -0.08250335 -0.069561645 0.059855368
-0.025883403 0.09382734 -0.0760325 -0.07441478 0.0032354253 -0.02426569 0.014559414 -0.07117936
-0.0032354253 0.038825102 0.0064708507 0.09220962 0.09706276 0.069561645 0.04691367 0.06794393
-0.08250335 -0.009706276 0.022647977 0.01779484 -0.0016177127 0.053384516 -0.014559414 -0.02426569
-0.0760325 -0.07926792 0.019412551 -0.07926792 0.09059191 0.011323988 0.021030264 -0.0032354253
0.084121056 -0.0760325 0.061473083 -0.059855368 0.09220962 0.045295954 -0.09059191 0.069561645
-0.09220962 -0.0064708507 -0.09059191 -0.029118828 0.080885634 0.008088564 -0.04853138 0.059855368
-0.040442817 -0.021030264 0.06794393 -0.061473083 -0.004853138 -0.06794393 -0.05500223 -0.050149094
0.08573877 -0.0016177127 0.095445044 0.040442817 -0.014559414 -0.038825102 0.07279707 -0.02426569
-0.08573877 -0.012941701 -0.053384516 0.080885634 0.050149094 0.0064708507 0.016177127 -0.027501116
0.08250335 -0.07441478 0.050149094 0.06794393 0.098680474 0.02426569 -0.04853138 -0.07117936
-0.01779484 -0.009706276 -0.012941701 -0.09059191 0.098680474 -0.038825102 0.045295954 0.038825102
0.07441478 -0.019412551 -0.10353361 0.045295954 0.004853138 0.0760325 0.069561645 0.050149094
0.01779484 -0.012941701 -0.101915896 -0.045295954 0.004853138 -0.080885634 0.087356485 -0.009706276

sequential_18/lstm_55/while/lstm_cell_1/MatMul_1 i1 [512, 128] scale=0.003025729 zero_point=0
00000000: ff03 fb0d fa12 f201 1206 0fef 0200 f420
00000010: 0c1b 0301 e900 0bf1 e800 24e3 f906 1218
00000020: ffe8 1e0d e813 fdf5 0d02 15f2 e9fc 0312
00000030: edef ed0d f4fd 100c 101b 000f 0503 01f1
00000040: 03fc ffe8 e70d 0bfd ff04 19f3 cbf2 e31c
00000050: f205 0f05 18f4 03e0 fcf2 fc0b ceea eef2
00000060: 001c 04e5 f6f5 08f4 e1de 1dee 11e3 1aed
00000070: fd16 1415 fb01 0cfe fd02 eb0a 0310 05fe
00000080: 03d6 fffe e6ea f7ff e9e4 e7e4 e413 f8ef
00000090: f3e7 0d19 eefd fa0c e7ea eb00 01eb ebfa
000000a0: 03ee fad5 0205 dfe2 0017 f9e4 ecfb 0dea
000000b0: 06f1 ede8 0605 fff4 1302 ec18 0313 fc09
000000c0: fef4 f9f6 e3e8 ed0e ecd6 fff9 02f9 0aec
000000d0: e1da 1bfc f713 170f 0b0c fff5 0804 0101
000000e0: f0fc ed05 0004 01e7 f4f8 f6fd 05fd 06e9
000000f0: e8fa 05e5 19fd 07f9 ebed 00f4 f404 0bde
-0.003025729 0.009077187 -0.015128645 0.039334476 -0.018154373 0.054463122 -0.042360205 0.003025729
0.054463122 0.018154373 0.045385934 -0.051437393 0.006051458 0.0 -0.036308747 0.09682333
0.036308747 0.081694685 0.009077187 0.003025729 -0.06959177 0.0 0.033283018 -0.045385934
-0.07261749 0.0 0.108926244 -0.08774614 -0.021180103 0.018154373 0.054463122 0.07261749
-0.003025729 -0.07261749 0.09077187 0.039334476 -0.07261749 0.05748885 -0.009077187 -0.033283018
0.039334476 0.006051458 0.06354031 -0.042360205 -0.06959177 -0.012102916 0.009077187 0.054463122
-0.05748885 -0.051437393 -0.05748885 0.039334476 -0.036308747 -0.009077187 0.048411664 0.036308747
0.048411664 0.081694685 0.0 0.045385934 0.015128645 0.009077187 0.003025729 -0.045385934
0.009077187 -0.012102916 -0.003025729 -0.07261749 -0.07564323 0.039334476 0.033283018 -0.009077187
-0.003025729 0.012102916 0.07564323 -0.039334476 -0.16036363 -0.042360205 -0.08774614 0.08472041
-0.042360205 0.015128645 0.045385934 0.015128645 0.07261749 -0.036308747 0.009077187 -0.09682333
-0.012102916 -0.042360205 -0.012102916 0.033283018 -0.15128645 -0.066566035 -0.054463122 -0.042360205
0.0 0.08472041 0.012102916 -0.081694685 -0.03025729 -0.033283018 0.024205832 -0.036308747
-0.0937976 -0.102874786 0.08774614 -0.054463122 0.051437393 -0.08774614 0.07866895 -0.05748885
-0.009077187 0.066566035 0.06051458 0.06354031 -0.015128645 0.003025729 0.036308747 -0.006051458
-0.009077187 0.006051458 -0.06354031 0.03025729 0.009077187 0.048411664 0.015128645 -0.006051458
0.009077187 -0.12708062 -0.003025729 -0.006051458 -0.07866895 -0.066566035 -0.027231561 -0.003025729
-0.06959177 -0.08472041 -0.07564323 -0.08472041 -0.08472041 0.05748885 -0.024205832 -0.051437393
-0.039334476 -0.07564323 0.039334476 0.07564323 -0.054463122 -0.009077187 -0.018154373 0.036308747
-0.07564323 -0.066566035 -0.06354031 0.0 0.003025729 -0.06354031 -0.06354031 -0.018154373
0.009077187 -0.054463122 -0.018154373 -0.13010634 0.006051458 0.015128645 -0.09984905 -0.09077187
0.0 0.06959177 -0.021180103 -0.08472041 -0.06051458 -0.015128645 0.039334476 -0.066566035
0.018154373 -0.045385934 -0.05748885 -0.07261749 0.018154373 0.015128645 -0.003025729 -0.036308747
0.05748885 0.006051458 -0.06051458 0.07261749 0.009077187 0.05748885 -0.012102916 0.027231561
-0.006051458 -0.036308747 -0.021180103 -0.03025729 -0.08774614 -0.07261749 -0.05748885 0.042360205
-0.06051458 -0.12708062 -0.003025729 -0.021180103 0.006051458 -0.021180103 0.03025729 -0.06051458
-0.0937976 -0.1149777 0.081694685 -0.012102916 -0.027231561 0.05748885 0.06959177 0.045385934
0.033283018 0.036308747 -0.003025729 -0.033283018 0.024205832 0.012102916 0.003025729 0.003025729
-0.048411664 -0.012102916 -0.05748885 0.015128645 0.0 0.012102916 0.003025729 -0.07564323
-0.036308747 -0.024205832 -0.03025729 -0.009077187 0.015128645 -0.009077187 0.018154373 -0.06959177
-0.07261749 -0.018154373 0.015128645 -0.081694685 0.07564323 -0.009077187 0.021180103 -0.021180103
-0.06354031 -0.05748885 0.0 -0.036308747 -0.036308747 0.012102916 0.033283018 -0.102874786

sequential_18/lstm_56/while/lstm_cell_2/BiasAdd/ReadVariableOp f4 [256]
00000000: 74dc 003d 8127 46bc 34a2 ebbc 1ad5 aa3c
00000010: 9360 3cbc 22f4 b73c c850 d6bc d1e8 48bd
00000020: 1e22 403b 8d95 173c 0c5c 823c 1b51 79bd
00000030: 0dba b13c 6fe9 eebc efcd 5b3d ce54 2a3c
00000040: 1395 9abc 8e7c fa3c e47b 1b3d ef95 f2bc
00000050: 36de 063b ebfc 033d 8490 033d 8522 f83b
00000060: 35df c2bc 04af 03bd fb0a 0fbd 5909 a5bc
00000070: a4ba 01bd 5dd6 5cbd 2f6d 0b3d c33e 37bd
00000080: ec55 6cbc 07d2 a9bc 4444 01bd aae9 97bc
00000090: 1c86 14ba 25bb fbbc 20ae 5abd a098 b1bc
000000a0: 6465 aebb aeed 5d3c 92ab 20bc 58b8 293c
000000b0: f33a 1cbd 73e9 3dbc a8f4 263d 7a28 d5bb
000000c0: 3408 86bc 78a3 38bb 8835 c5bb fbf4 9d3c
000000d0: 8a24 1dbd 432c 1cbc f52a 2cbd 677e 37bc
000000e0: b363 7ebc b8d5 eebb 8be3 213d 8b32 463c
000000f0: 3259 d33c 9b2d 42bc fbf6 123d 648b ca3b
00000100: d0cc 813f e6d1 743f b563 7b3f 32be 833f
00000110: f9ed 813f 7342 853f d890 783f 412f 773f
00000120: ce46 803f a1aa 803f b6a1 853f 3542 793f
00000130: 8c70 803f 3f98 793f 8779 8d3f cb73 7f3f
00000140: c934 7b3f 5f7e 873f 7351 893f abae 773f
00000150: 999a 853f 41c6 893f ed82 883f 9b0d 813f
00000160: ef00 7b3f 93b9 783f f283 763f f56a 7c3f
00000170: a272 7c3f 694c 733f 5da4 873f 2c38 783f
00000180: 6bf7 7b3f 5c3e 753f 1534 783f 51d4 7d3f
00000190: faba 7e3f d7dd 793f 5fcc 723f 394f 773f
000001a0: ed5d 883f fc56 823f 7a6b 813f fa6a 823f
000001b0: 58d9 783f 1847 7d3f f579 893f 0f1b 853f
000001c0: ccf6 813f 4249 7e3f 3388 7d3f 45f1 843f
000001d0: ad07 7d3f b825 813f b314 7c3f 501d 803f
000001e0: 718e 803f 4437 813f e66a 833f 0afd 813f
000001f0: 0fc5 863f d589 7f3f e68a 8f3f e213 783f
00000200: e637 e73b d7b4 72bd 6fc5 6a3d eb16 f73c
00000210: 533f 1a3d 7d93 a23d afdd 82bd ea10 9ebc
00000220: 5999 99b9 2b4f 5fbd 81c4 d93c 0582 0abd
00000230: 6c7d 3bbd f2fc 8abd 70e4 0b3e a768 bebb
00000240: 573b 50bc b1c6 043e 875b c53d 31c1 47bd
00000250: c4d9 5c3b 1a1c 073e 4a12 b43d 996a 3e3d
00000260: f05b 6dbd 2e31 05bc 856c 4cbd 5aa4 303d
00000270: 4241 f0bc e784 29bd 4277 073e b01e 21bd
00000280: fa7a 55bc 9daf 94bc 564b 2ebd 34df a5bc
00000290: 78cb 8dbb e781 23bd 504a b5bd bfa0 e0bc
000002a0: dce7 d53b 84cb 553d 64dd cf3b 993a 1bbd
000002b0: 9bef 77bd 4bca 703d 2c50 163e 3715 393d
000002c0: 1988 6f3d 9379 fabc 9868 57bd 4663 d1bc
000002d0: e76d b3bc 7a49 1d3d 7f08 e5bc eb1a 8fbc
000002e0: 759d 813c ea7f 083c 2ff1 0dbc 17f2 0bbd
000002f0: afb3 cf3d da90 873a 2dae 293e 0eb1 97bb
00000300: f503 d23c 6ca8 67bc e45f 0fbd 0d48 e73c
00000310: 651a 943c 79cd a83c e93a b0bc b449 d6bb
00000320: 6fc3 9d3b be86 683c 5be6 f13c dbb6 53bd
00000330: ebda ef3c 2362 d7bc df10 6b3d 5c40 9b3c
00000340: 5987 b7ba 5bc9 963b ae24 3f3d 6dfd 9cbc
00000350: f3fb 223c bf15 723d a58b d43c 61ff 643c
00000360: 22e4 cabc acf4 d4bc 5687 01bd 5eeb 3bbc
00000370: 3f40 e3bc 6a28 18bd 1083 8a3d 89a0 1dbd
00000380: 3047 82bc baaa 84bc 3e7f bfbc 88a3 27bc
00000390: e965 dd3b 0c2b f2bb 1421 34bd 8f7f 05bd
000003a0: 9a58 583c 84a1 c73a 52dd 8e3c 7956 153d
000003b0: e17c 16bd 4723 2fbc 5ad0 433d 3dfd e83c
000003c0: bc70 d53c 6ac8 473c 81c2 bbbc d86a b43c
000003d0: d989 8bbc 86b9 c0ba 3281 cfbc 6ef9 01bc
000003e0: ff73 99bc 6e66 cfba 865f 043d f828 6c3b
000003f0: 8025 ca3c 4f1d 7ebb f777 803d 81f5 fd3b
0.03146024 -0.012094379 -0.028763868 0.020853568 -0.011497634 0.022455279 -0.026161566 -0.049050156
0.002931721 0.009251964 0.015913032 -0.060868364 0.021695161 -0.029164044 0.05366319 0.010396196
-0.018869912 0.03057697 0.03795995 -0.02961251 0.0020579225 0.032223623 0.032120243 0.0075724744
-0.023788074 -0.03214933 -0.03492258 -0.020146059 -0.031672135 -0.05391537 0.034039672 -0.04473759
-0.014424782 -0.020730032 -0.031559244 -0.018544037 -0.0005665736 -0.030728886 -0.053388715 -0.021679223
-0.0053221453 0.013545437 -0.009806531 0.010358892 -0.038142156 -0.011591303 0.040760666 -0.0065050693
-0.016361333 -0.0028173607 -0.0060183443 0.019281855 -0.038364924 -0.009532037 -0.042033155 -0.01119957
-0.0155267 -0.007288661 0.039523643 0.012097011 0.025799368 -0.0118516935 0.03588007 0.0061811674
1.0140629 0.9563278 0.98199016 1.0292418 1.0150748 1.0410904 0.97096014 0.9655648
1.0021608 1.0052072 1.0439975 0.9736665 1.0034347 0.97497934 1.1052712 0.9978606
0.9812742 1.058544 1.0727981 0.967509 1.0437804 1.0763627 1.0664955 1.0082277
0.980483 0.97158164 0.9629508 0.98600703 0.98612416 0.9503847 1.0597035 0.9696071
0.98424405 0.9579828 0.9695447 0.99152094 0.99504054 0.97604126 0.94843096 0.9660526
1.0653664 1.0182796 1.0110924 1.0188897 0.9720664 0.98936605 1.0740343 1.0398883
1.0153441 0.9933053 0.9903595 1.038613 0.9883984 1.0089636 0.98469085 1.0008945
1.004347 1.0094991 1.0266998 1.0155346 1.0528888 0.9981969 1.1214263 0.9690534
0.007056224 -0.059254494 0.057317194 0.030162295 0.037658047 0.079382874 -0.06389939 -0.019295175
-0.00029296687 -0.05451886 0.026582958 -0.033815403 -0.04577391 -0.06786527 0.1366136 -0.0058108154
-0.01270946 0.1296642 0.09636598 -0.048768226 0.0033699134 0.13194314 0.08792551 0.04648838
-0.057949007 -0.008129401 -0.04990818 0.043125488 -0.029327992 -0.04138651 0.13229087 -0.039335907
-0.013029808 -0.018150145 -0.042552315 -0.020248033 -0.004327234 -0.039918806 -0.088520646 -0.0274204
0.006527884 0.05219604 0.0063435305 -0.03789768 -0.06053124 0.05878667 0.1467902 0.045186248
0.058479402 -0.03057555 -0.052589983 -0.025560033 -0.021902991 0.03840015 -0.027958153 -0.01746889
0.015822152 0.008331278 -0.00866346 -0.03416642 0.10141694 0.0010342852 0.16570349 -0.004629261
0.025636652 -0.014139276 -0.035003558 0.028232599 0.018078992 0.02060579 -0.021512466 -0.006539548
0.0048145573 0.014192281 0.029528787 -0.051688056 0.029279193 -0.026291912 0.057389136 0.018951587
-0.0014002129 0.00460164 0.04666584 -0.019163812 0.009947765 0.05910277 0.025945494 0.013976903
-0.024766985 -0.025995575 -0.031623207 -0.01146969 -0.027740596 -0.037147917 0.067632794 -0.038483176
-0.015903085 -0.01619469 -0.023376103 -0.01023186 0.0067565334 -0.0073903855 -0.04397686 -0.032592352
0.013204718 0.001523063 0.017439518 0.03645942 -0.036740188 -0.010689563 0.04780612 0.028441066
0.026054733 0.0121937785 -0.022919895 0.022023603 -0.017033504 -0.0014703728 -0.02533016 -0.007933004
-0.018732069 -0.0015823373 0.03231766 0.0036035161 0.024676085 -0.0038774794 0.062728815 0.0077502136
